iris_classifier/iris_classifier_model.pt (torch, 3092 bytes, 6 tensors)

fc1.weight f4 [8, 4]
000000 db 32 6f 3f 9b 8c 4d 3f 26 81 2e bf 1c f2 86 bf
       0.93436974 0.8029267 -0.68165815 -1.0542636
000010 5c b4 75 3f d1 cf fe 3e 53 68 20 bf 94 3e ba bf
       0.9597833 0.49767926 -0.62659186 -1.4550347
000020 5c ea df 3e 1d df 39 bd b3 85 7f 3f e3 00 ce 3e
       0.4373349 -0.045378793 0.99813384 0.40235052
000030 83 9d 8a 3e c1 26 15 bf 9b 2a 67 3f 06 20 e4 3e
       0.27073297 -0.5826226 0.90299386 0.44555682
000040 6c 71 0c be b0 7c a4 bd d0 db 13 3e 6a e9 fa be
       -0.13715142 -0.08031595 0.1443932 -0.49006206
000050 33 6d e2 3e 02 bd 2d 3f f1 86 0f 3f 2d ec 8f 3f
       0.44223937 0.6786653 0.5606528 1.124395
000060 80 61 56 3d fc fd 87 be 74 f0 31 be 90 1d 44 bd
       0.052339077 -0.26560962 -0.17376882 -0.047879755
000070 9d b2 8c 3d 9d e0 c8 bb ef ba 09 bf e7 12 61 3e
       0.06870005 -0.0061302916 -0.53800863 0.21979867

fc1.bias f4 [8]
000000 a7 6a 6c 3f 6c 60 d1 3f 6d c2 42 bf bc 54 5d bf
       0.9235024 1.6357551 -0.7607792 -0.8645742
000010 46 5e a2 3e 56 39 08 bf a0 52 34 bd 8c 2f 1d bf
       0.3171255 -0.5321249 -0.04402411 -0.61400676

fc2.weight f4 [6, 8]
000000 42 a0 b2 39 66 37 5f 3d 3b 0a ce be 3c 91 1c bd
       0.00034070207 0.05449619 -0.4024218 -0.038224444
000010 6f db 92 3e bb 9c 3b 3c e0 38 9b 3d 9b 45 4b bd
       0.2868304 0.011450942 0.075792074 -0.049626928
000020 0e 0b 53 3f 2e 2e 70 3f d3 74 a7 bd 27 fd c1 be
       0.82438743 0.93820465 -0.08176579 -0.37888452
000030 80 3f 00 3e cb c3 42 be 37 66 3a be 9e 9e 6c 3e
       0.12524223 -0.19020002 -0.18203054 0.23107383
000040 ac 66 7e 3f e2 3b 79 3f 60 24 37 be a9 78 40 bf
       0.99375415 0.97357 -0.1788497 -0.7518411
000050 56 a6 7c 3e 84 22 1d be 93 e9 95 3e 0a 07 14 be
       0.24672827 -0.15345198 0.29279765 -0.1445581
000060 fa 68 9a be 20 c9 d2 3d ce 3a b0 be 8a 82 0f 3e
       -0.30158216 0.10292268 -0.34419864 0.1401464
000070 9a 04 75 3e 01 72 46 3e a6 fe a2 be 03 da 95 be
       0.23927537 0.19379427 -0.31834906 -0.29267892
000080 f1 03 d6 be df 55 03 bf 9c f8 53 3f 53 42 06 3f
       -0.41799882 -0.51302904 0.8280122 0.5244495
000090 67 b9 ad 3e 42 2b 7b 3f 61 cc b1 3e 8e 2f 2d be
       0.33930513 0.9811288 0.3472624 -0.16912672
0000a0 16 fb 6a be 09 89 8c 3e b8 22 1d be d9 3e 8e 3e
       -0.22947344 0.274483 -0.15345275 0.27782324
0000b0 b0 2f de 3c b2 18 ad be c5 e5 a3 be da 3e 7c 3e
       0.027122349 -0.33807904 -0.32011238 0.24633351

fc2.bias f4 [6]
000000 26 f3 51 3e ef 41 92 3e 77 6a 24 3f e6 ac 26 be
       0.2050291 0.28565928 0.6422495 -0.16276893
000010 3f f5 0d bf 68 da 2a bd
       -0.5545234 -0.041712195

out.weight f4 [3, 6]
000000 38 50 a6 be 76 e8 10 3f 4d ca 49 3f 17 92 97 bd
       -0.32483077 0.5660471 0.7882431 -0.07400911
000010 f5 89 02 bf f0 52 1b 3e 26 1f 32 be 30 4b a3 3e
       -0.50991756 0.15168357 -0.17394695 0.318933
000020 0c 69 bd 3e 40 71 a3 be a8 4e 17 3f ca 0c 85 be
       0.36994207 -0.3192234 0.59104395 -0.2598632
000030 46 d5 e5 3d 77 64 9c bf 32 68 a0 bf d8 f5 e0 bb
       0.11222319 -1.221816 -1.2531798 -0.0068652444
000040 af 87 a0 3f 82 6a 85 3e
       1.2541407 0.26057822

out.bias f4 [3]
000000 e2 23 1b bd 57 ab 9b 3e 48 15 40 bf
       -0.037876017 0.3040416 -0.7503247
